chatbot_model.pth (torch, 135837 bytes, 6 tensors)

fc1.weight f4 [128, 177]
000000 b2 ce 5d 3e c0 98 d6 bd ed b7 cf bd b3 dc 1d 3e
       0.21660879 -0.104783535 -0.10142503 0.15416221
000010 55 56 0d be 1c f6 89 bd be 00 80 3e 1d b5 4e 3d
       -0.13802464 -0.06736395 0.25000566 0.05046569
000020 06 44 6f 3e 0e c1 df bc bc d7 3e 3d fb cb e7 bd
       0.23365793 -0.027313735 0.04659246 -0.11318203
000030 89 ed 53 3e 97 95 18 3e ac 57 8b bd 8e ed bf bd
       0.20696081 0.14900814 -0.068038315 -0.09371482
000040 86 0e 11 3e 73 c0 c9 bd 8f 25 5b 3e c6 14 48 bd
       0.14165697 -0.0985116 0.21401046 -0.048847936
000050 d0 a7 9e bd 05 1e 5c 3e bd e6 5e bd 03 5d e1 3d
       -0.077468514 0.21495827 -0.054419268 0.11004069
000060 af e3 2b bd 10 72 19 bd 2a 3a d1 3c f3 a2 ce b9
       -0.041965183 -0.037462294 0.02554043 -0.00039412788
000070 e2 fd f0 bc ed af 0f bd 8e e7 50 3d 84 40 e0 bd
       -0.029417936 -0.035079885 0.051002078 -0.109498054
000080 11 4f a8 bc 3e 00 0a bd df 37 aa bd 80 5f 19 be
       -0.020545514 -0.033691637 -0.08311438 -0.14977837
000090 2e b7 06 bd 4a 0f 12 3e 3c 7d 7e 3e 78 07 08 be
       -0.032889538 0.14263645 0.2485246 -0.13284099
0000a0 27 0f 23 3e bb f0 9b bd 47 54 d7 bc cb 03 a5 bd
       0.15923749 -0.07614275 -0.026285304 -0.08057364
0000b0 98 d4 97 bd 35 44 05 3e b1 e4 35 be 1b 9c e4 bd
       -0.07413596 0.130143 -0.1776302 -0.11162587
0000c0 e9 6a 05 3e fb 6e 01 3d 5b a0 c9 3c c0 e4 58 3d
       0.13029064 0.03159998 0.024612596 0.052952528
0000d0 36 41 e7 3d d5 cd 7b 3e c2 29 39 3e a6 f2 03 3e
       0.11291735 0.24590237 0.18082336 0.12885532
0000e0 5e 83 62 be b6 6d b4 bb 50 32 fc ba dc 0e de bd
       -0.22120425 -0.0055062426 -0.0019241069 -0.10842678
0000f0 b5 a3 05 3e 3d 0e 35 be 30 3c b2 bd ae 09 81 3c
       0.1305073 -0.17681213 -0.08702886 0.015751686
000100 33 b9 4f bd 5f cb e2 3d 8f b4 c8 bd 6c 7e 25 3e
       -0.05071373 0.11073946 -0.09800064 0.16161507
000110 8f 90 0f bd 95 a1 0d 3e 1c 01 44 3d 0c 9c 89 bd
       -0.03504997 0.1383117 0.04785262 -0.06719217
000120 85 55 18 3e 8e 1d e4 3d 98 d4 ff bc 95 aa 81 bd
       0.14876373 0.111384496 -0.031229302 -0.06331364
000130 05 49 7e bd b1 5b 56 bd a1 59 f7 3d 98 4c 30 3e
       -0.062081356 -0.052333537 0.12077642 0.17216718
000140 fd 96 1f be 17 8a a0 3d e9 2e 8b bd 91 04 18 3d
       -0.15584941 0.078388385 -0.06796057 0.03711373
000150 74 b6 cf bd 95 c3 80 bd 7f cf 8f bd 72 74 08 3e
       -0.10142222 -0.06287304 -0.070219986 0.1332567
000160 01 4a f6 3d be 56 8c 3b 56 18 ff bd ae 08 b6 bd
       0.12025834 0.0042828014 -0.124558136 -0.08888374
000170 a6 35 63 3e c1 db 5d bc 7d d0 87 3c 25 14 1f bd
       0.22188434 -0.013541163 0.016578907 -0.03883757
000180 c2 4d 5c 3d a2 57 80 3d 00 86 30 be d7 61 2c 3e
       0.053785093 0.06266715 -0.17238617 0.16834198
000190 99 d9 19 3e 93 e4 7e 3d ed 48 30 3e 40 4e a3 3e
       0.15024413 0.062229704 0.17215319 0.31895638
0001a0 8a 8e 41 3e bd d2 5c 3e d4 c6 7c 3e 26 bb 1d be
       0.1890203 0.21564765 0.24685222 -0.15403423
0001b0 5c 5e 9f bd 62 a4 98 bd 49 e8 f6 bd d9 04 f7 3b
       -0.077816695 -0.074532285 -0.12056024 0.0075384197
0001c0 c4 70 c6 bd e0 14 9e bb 61 a5 e7 bd b6 a3 1d bd
       -0.09689477 -0.004824266 -0.113108404 -0.038486205
0001d0 b1 4b 7d 3e 14 11 9d bd d2 27 70 3e 2f 3b 01 be
       0.24735905 -0.07669273 0.2345269 -0.12620233
0001e0 c5 06 24 be ad 9e 51 be ff ec ea bc 80 61 16 3a
       -0.16018207 -0.20470686 -0.028677462 0.00057365745
0001f0 df 1a 24 be 0a e0 22 be fc 73 42 3d 87 d0 3a 3e
       -0.16025876 -0.15905777 0.047473893 0.1824361
000200 71 27 01 3d 57 0d 08 bd e6 6a bc bd f7 15 e7 bd
       0.031531755 -0.033215847 -0.09200077 -0.11283486
000210 c8 ed 0e 3e fc db 89 bc 47 09 c0 bd 25 f7 8c bd
       0.13957894 -0.01682853 -0.093767695 -0.068830766
000220 df aa a7 bd f6 af 1f bc e2 cc 4e bd 02 ba 0d be
       -0.08186888 -0.009746542 -0.05048836 -0.13840488
000230 5e 7e a5 bd 45 da 0d 3e fd 92 32 3e c6 4f 24 3e
       -0.08080743 0.13852794 0.17438884 0.16046056
000240 04 93 6d 3e 16 74 13 be ce 7b d5 bd 07 6a 91 bd
       0.23200613 -0.14399752 -0.104240045 -0.07100301
000250 f4 ea e6 bd 55 20 c4 3d 39 5b 97 3d 27 c0 26 3d
       -0.112752825 0.09576479 0.07390446 0.040710595
000260 c6 20 ee 3d b1 21 e1 3d 95 bd 26 bd 35 2b 01 3e
       0.11627345 0.10992754 -0.040708143 0.12614138
000270 69 11 60 3d e1 82 c9 bd ae b0 38 3d b4 fc 03 3e
       0.054704104 -0.09839416 0.04509037 0.12889367
000280 9e 6b 50 3e 64 d2 10 3e 51 96 c0 bd 20 30 c9 bd
       0.20353553 0.14142758 -0.094036706 -0.09823632
000290 fb 71 1d bd 93 4a ea bd 97 b9 70 3e 86 7c c5 3d
       -0.03843878 -0.11440005 0.23508297 0.096428916
0002a0 e6 a0 1d bc 7d bc 1f 3e 20 ec 5b 3e aa e2 6f 3a
       -0.009620881 0.15599246 0.21476793 0.0009150902
0002b0 c8 de bf bc d3 30 58 3c 25 78 02 3e 69 de bc 3d
       -0.02342166 0.013195234 0.12741144 0.09222109
0002c0 83 25 6e 3c 7a f2 96 3d b8 eb 88 3d 3a 87 f9 3d
       0.014535311 0.073704675 0.06685585 0.121839955
0002d0 f6 64 ec bd fb 04 ba 3d 68 2d df bd 1c 10 ed 3c
       -0.11542694 0.09082981 -0.108973324 0.028938346
0002e0 ee ec 50 3e 4b ef 1d be e8 bc 31 3e 4e b8 d5 bd
       0.20402882 -0.15423314 0.17357218 -0.10435544
0002f0 1e 0f 7d 3e 9e 78 b6 3d 4d 14 f1 bd 53 21 b6 bd
       0.24712798 0.08909725 -0.1177145 -0.08893075
000300 76 7a 1a 3e d5 6c ec bd 28 b3 8e 3e db 11 c8 bd
       0.15085778 -0.115441956 0.2787106 -0.09769031
000310 1d a0 59 bc 84 0a 00 be b2 04 63 3e a5 cf 1e 3e
       -0.013282803 -0.12504011 0.2216976 0.15508898
000320 4d 88 81 bc 09 d0 27 3e cf d9 91 3d d3 dd 22 3e
       -0.015812064 0.16387953 0.07121622 0.15904932
000330 0b fd 52 bd 55 31 37 3e 70 f1 17 be 48 73 0f 3d
       -0.05151085 0.17889912 -0.14838195 0.03502205
000340 17 02 40 bc a8 8b 9c bd 3a 54 17 be c8 7d ed 3d
       -0.011719248 -0.07643825 -0.14778224 0.115962565
000350 30 70 35 3e e3 6e 11 ba 6c 5c e4 bd f6 66 1d be
       0.17718577 -0.00055478344 -0.111504406 -0.15371308
000360 b8 aa 11 3e bf 50 8e bc 36 1a 8c bd cd 82 cc bd
       0.1422528 -0.017372487 -0.06840937 -0.09985886
000370 64 b4 af 3e f7 f9 77 bc 58 29 6e 3c f1 a6 00 3e
       0.34317315 -0.01513528 0.014536224 0.12563683
000380 46 aa 15 be 6e 90 bc bd e7 d1 ee 3c 35 53 18 3e
       -0.14615735 -0.09207235 0.029152824 0.14875491
000390 29 08 80 3d 88 e7 76 3d 7f 1b 76 3d 26 0b aa bc
       0.062515564 0.0602794 0.060084816 -0.02075727
0003a0 81 23 01 3e ae 3a e4 3d 22 99 1e 3e 72 ca da bd
       0.126112 0.11144005 0.15488103 -0.10683145
0003b0 fa fc 1d 3e f2 98 99 3d dc cf 8d 3e 04 fa 8c 3d
       0.15428534 0.07499875 0.27697647 0.06883624
0003c0 be bb 78 3e f5 1d 11 3e a6 74 c0 3d 97 6e 58 3e
       0.24290368 0.14171584 0.09397249 0.21135937
0003d0 58 72 80 3d 5f 4e 34 be 1a 01 6d 3c 2c e8 ba 3c
       0.06271809 -0.17608021 0.014465595 0.022815786
0003e0 0b c4 d3 bd c5 b3 a2 3d a7 c0 c7 bb 84 09 29 3e
       -0.103401266 0.079444446 -0.006095964 0.16507536
0003f0 29 81 6c bd de 11 00 be c8 44 ca bd 50 28 ca bc
       -0.057740364 -0.12506816 -0.098764 -0.024677426

fc1.bias f4 [128]
000000 29 77 2d 3e 96 bb 5a 3e 1b 9e f9 3d 3b 9d f7 3d
       0.16939987 0.21360621 0.12188359 0.12090536
000010 50 f7 2d 3e 2b 15 07 3e 91 ab 1f 3e 7f 86 2b 3e
       0.16988873 0.13191669 0.15592791 0.16750525
000020 58 56 33 3e 08 2a 13 3e cb e5 29 3d 19 79 d8 3d
       0.17513406 0.14371502 0.041478913 0.105699725
000030 96 79 76 3e 88 18 0f 3e 52 53 71 3e b6 66 45 3e
       0.24069819 0.13974202 0.2356694 0.19277462
000040 91 9d 4f 3e 1f 95 29 3e 58 8c 55 3e a7 2f 66 3e
       0.2027495 0.16560791 0.20854318 0.22479115
000050 6b 27 47 3e 59 49 41 3e 80 2e 06 3e 94 74 f3 3d
       0.1944863 0.18875636 0.13103676 0.1188747
000060 a2 c3 20 3e 6d 12 4c 3e b1 3b 18 3e 97 85 59 3e
       0.15699628 0.19928904 0.1486652 0.21242367
000070 15 cf 3d 3e 47 85 de 3d 97 00 24 3e 46 40 dc 3d
       0.18536027 0.108652644 0.1601585 0.10754447
000080 19 e9 59 3e 4b 64 e7 3d 15 8f 21 3e 7e 59 60 3e
       0.21280326 0.11298426 0.15777238 0.21909139
000090 68 a6 d2 3d b6 c2 85 3d 0f fd ef 3d ec d8 a8 3d
       0.10285646 0.06531279 0.11718189 0.082444996
0000a0 13 3f f8 3d 5f 0e f4 3d d4 15 2c 3e 4f 56 3a 3e
       0.121214055 0.119168036 0.16805202 0.18196987
0000b0 73 d5 14 3e 64 bf 18 3e 4a aa d4 3d 45 42 10 3e
       0.1453455 0.1491676 0.103840426 0.1408778
0000c0 89 4d 03 3e 56 21 62 3e 6b d8 af 3d 08 95 1e 3e
       0.12822546 0.22083029 0.085862 0.15486538
0000d0 36 23 a3 3d c8 d7 d5 3d 27 35 78 3e c9 73 22 3e
       0.079657 0.10441548 0.24239026 0.15864481
0000e0 4d 57 f8 3d 84 cc a8 3d ba ea 13 3e 04 3c b5 3d
       0.12126026 0.08242133 0.1444501 0.08849338
0000f0 b6 bd 18 3e 10 2b 1d 3e bb 73 c7 3d 5e 5d 4b 3e
       0.14916119 0.15348458 0.09738871 0.19859836
000100 9c ae 90 3e 97 40 46 3e 37 43 c3 3d 33 a1 52 3e
       0.28258216 0.19360577 0.095343046 0.20569305
000110 6a 84 23 3e 98 ff 37 3e 2d 92 37 3e e0 35 e9 3d
       0.1596848 0.17968595 0.17926855 0.11387229
000120 7f 4e 64 3e 91 65 18 3e 01 b4 2b 3e 31 53 96 3d
       0.22295569 0.14882495 0.16767885 0.07340086
000130 c1 0d e7 3d 5e 13 3c 3e 10 d9 c7 3d a0 72 42 3e
       0.1128192 0.18366763 0.09758198 0.18989038
000140 9d 0e 32 3e 36 93 f6 3d ea fa 1f 3e 08 dd 5b 3e
       0.17388387 0.12039797 0.1562306 0.21471035
000150 46 03 23 3e a9 a1 c8 3d 8a 2e c0 3d f6 55 25 3e
       0.15919217 0.09796459 0.093838766 0.16146073
000160 47 d1 02 3e 75 8a 22 3e b3 9c da 3d 94 ed a8 3d
       0.12775145 0.1587313 0.10674419 0.082484394
000170 6b 6a 03 3e 04 0a df 3d 6c b5 06 3e 4a e3 3c 3e
       0.12833564 0.10890582 0.13155144 0.18446079
000180 4a c4 eb 3d 63 72 6c 3e 48 fc 1f 3e 93 d6 c7 3d
       0.115120485 0.2309051 0.15623581 0.09757724
000190 78 c0 58 3e 86 af 0a 3e 9f 96 09 3e 81 b5 3f 3e
       0.21167171 0.1354352 0.13436364 0.18721582
0001a0 3d a3 68 3e 2f ee 33 3e 02 d1 c3 3d 98 3a 80 3e
       0.2271852 0.17571329 0.095613495 0.25044703
0001b0 db e5 d8 3d 8d 98 4c 3e a6 e8 51 3e d3 f4 43 3e
       0.105907165 0.19980069 0.20498905 0.19136362
0001c0 c0 64 30 3e ad 36 11 3e bb 58 0e 3e b2 c4 4d 3e
       0.17225933 0.14181013 0.13901035 0.20094565
0001d0 b7 a1 51 3e 5c b8 3f 3e 91 15 22 3e da e8 30 3e
       0.20471846 0.18722671 0.1582854 0.17276326
0001e0 eb e3 25 3e 6e 44 3e 3e 61 7e 4c 3e 6c 51 e4 3d
       0.16200225 0.18580791 0.19970085 0.111483425
0001f0 16 d8 29 3e 4c b1 48 3e c4 18 d0 3d 8c e9 29 3e
       0.16586336 0.19598883 0.10160974 0.16592997

fc2.weight f4 [64, 128]
000000 97 c5 07 3e f9 1c 94 3e 7f ce f5 bd 32 1f 8d 3e
       0.13258968 0.28928354 -0.12002277 0.27562863
000010 fa c9 12 3d 03 f2 8c 3e ae 4f fd bd 03 d6 b9 bd
       0.03583715 0.2752839 -0.12368713 -0.090740226
000020 3a 8b f4 bc e4 2a 2b 3d 81 ed e2 3d bc 9f 92 3e
       -0.029851545 0.04178895 0.110804565 0.28637493
000030 4e ae 82 3d 41 40 cd bd 60 fc 8a 3d f4 47 d0 3d
       0.06380902 -0.10022021 0.06786418 0.10169974
000040 ae 60 61 3d d0 94 db bd 24 30 e4 bd fd ab b6 bd
       0.05502384 -0.10721743 -0.111419946 -0.08919523
000050 4a 8b 5a be 44 8e da 3d af 1b 32 3e 7b 43 21 3e
       -0.21342197 0.10671666 0.17393373 0.15748398
000060 9b b5 41 bb 11 35 74 bd dd a1 ab bd f3 d7 b4 3d
       -0.0029557708 -0.05962092 -0.08380482 0.088302515
000070 1d 61 87 3e 5b 90 6a be 67 5b b8 bc ff a1 12 3e
       0.2644128 -0.2290663 -0.022504522 0.14319609
000080 1b da a8 3e d4 48 df bd 20 cd 82 bd 8d a7 41 bd
       0.329789 -0.10902563 -0.06386781 -0.04727893
000090 07 e1 97 be b6 1d 08 bd b9 e4 40 3e a0 41 5c 3e
       -0.2966387 -0.03323146 0.18837251 0.21509409
0000a0 69 65 83 bd 96 b8 a9 be 46 cd 97 3e 0a 20 96 bd
       -0.06415827 -0.3314864 0.296488 -0.0733033
0000b0 a6 2c 07 3e 9e 9c ba 3c 9a 4d 34 be 93 fb 99 3d
       0.13200626 0.022779759 -0.17607728 0.07518687
0000c0 01 7a 27 3e d0 dc 0a 3d 4f 2a e0 bc 52 31 4c be
       0.16355135 0.03390199 -0.027363924 -0.19940689
0000d0 74 64 63 3e 7d 93 52 be bd 14 c8 bc ee 3e 84 3e
       0.22206289 -0.20564075 -0.024423951 0.25829262
0000e0 9a 68 6e bc b2 f8 8a 3d 61 b6 03 3e a2 5f e6 3d
       -0.014551306 0.06785716 0.12862541 0.11248709
0000f0 15 9b 59 bd a7 2c e7 3e 84 11 d5 bd 94 ac c4 3d
       -0.053126413 0.45151255 -0.104037315 0.09603229
000100 36 5d 13 3e c9 ea 07 3e 06 69 36 3e 50 e3 fd 3d
       0.14391026 0.13273157 0.17813501 0.12396872
000110 b2 a5 00 3d 74 5e cd 3d 18 37 c5 bd 47 4a 05 3d
       0.03140802 0.10027781 -0.09629649 0.03254154
000120 9e e5 c4 3c 1b 4a eb 3d 12 87 1a bb b8 f7 d8 3e
       0.024035271 0.11488744 -0.0023579043 0.42376494
000130 e9 cc 04 3e 4a c8 83 bc 8f 9f bf bc 71 e7 19 3e
       0.12968792 -0.016086716 -0.023391513 0.15029694
000140 60 39 76 3e 5f 86 39 3e 6d c3 16 3d ca 0b 66 3d
       0.24045324 0.18117665 0.036807466 0.056163587
000150 7e 1f 59 be 4c 77 b8 3d 92 41 75 3d 12 01 36 3d
       -0.2120342 0.09007129 0.059876986 0.044434614
000160 76 60 51 3e 34 e7 42 bd a5 77 6d bc a2 25 05 3e
       0.20446953 -0.047583774 -0.0144938575 0.13002637
000170 a4 90 75 bc ea 2e 20 3d 60 42 6a be 69 fa 87 be
       -0.014988098 0.03910724 -0.22876883 -0.26558235
000180 fa 59 bb 3e 1c 1c 2f bd 0b 47 27 3d 3d 16 1f bd
       0.36592084 -0.042751417 0.040839236 -0.038839567
000190 cf a4 94 3c 52 34 19 3e 55 03 c1 3e d5 90 c3 3d
       0.018144993 0.14961365 0.37697855 0.09549109
0001a0 c4 3c b9 3b ff 08 94 3d f5 92 ed 3d ce a2 ad 3c
       0.005652996 0.07228278 0.116002955 0.021195795
0001b0 ab f1 0d 3e 96 bb 10 3e 2d a7 a4 bc 97 27 16 3e
       0.1386172 0.14134058 -0.020099247 0.1466354
0001c0 6e c0 40 3d a1 01 a9 3c 27 29 55 bd b0 7d de bd
       0.047058515 0.02063066 -0.0520412 -0.10863817
0001d0 fd b5 8e 3d 4e 90 2d 3e b8 4a 1e 3c ca 9a 75 bd
       0.06968305 0.16949579 0.009661369 -0.05996207
0001e0 66 05 0c 3e 2e 73 c8 3d 43 f2 89 be e6 4d 01 3e
       0.13673934 0.09787594 -0.26942644 0.12627372
0001f0 1a 87 0d bd ab 58 04 bb 43 8d 64 bd 51 f7 bb 3d
       -0.03455267 -0.0020194452 -0.05579878 0.09178031
000200 9b eb 43 bc 94 36 5e 3e 13 3f 8e 3e 84 ad f8 bd
       -0.011958028 0.21700507 0.27782497 -0.121424705
000210 af b9 c3 3d 4e 5e 45 3e a9 e1 a3 3e 7b 69 d9 3d
       0.09556901 0.19274256 0.32008103 0.10615822
000220 1f d3 fd 3e fb fd 38 be ec cd c1 3d e4 94 3b 3d
       0.49575135 -0.18065636 0.094631046 0.04579629
000230 65 c2 60 be f0 d7 fd bd 65 9d 82 3d c8 45 b9 3e
       -0.21949156 -0.123947024 0.06377677 0.3618605
000240 73 a0 61 3e 4e 2b b0 3d e7 05 5e 3d 09 6d 4f bd
       0.22033863 0.0860201 0.054204848 -0.050641093
000250 9c 60 f9 bd a1 05 a9 3d 67 70 78 3d d8 49 06 3d
       -0.1217663 0.08253027 0.06065407 0.032785267
000260 2b 75 75 3e 67 15 30 bd f5 c8 e2 bc 4b a9 78 bd
       0.23970477 -0.04298916 -0.027683714 -0.060708325
000270 fe 7f 7a 3e a8 c4 6e be aa 23 f1 3d d1 4f e3 bd
       0.24462888 -0.23317206 0.117743805 -0.11099208
000280 35 ae 73 3d e3 49 5b be c0 06 1c be 82 ae 8c 3e
       0.05949231 -0.21414904 -0.1523695 0.2747689
000290 59 51 20 bc 68 fc 38 bd 62 64 2b be ef 95 e6 bc
       -0.00978502 -0.04516259 -0.16737512 -0.028147666
0002a0 59 e0 06 3e 8d b5 b7 bd 63 0c 86 3d c5 fb 01 bd
       0.1317152 -0.08970175 0.06545331 -0.031734247
0002b0 0d d3 18 3e b3 f0 94 be f7 42 72 be b5 4b dd 3e
       0.1492426 -0.2908989 -0.23658358 0.43221822
0002c0 b9 58 cd 3d 53 d8 83 3e bd c3 0e 3e 7a a3 3d 3e
       0.10026688 0.2575098 0.13941856 0.18519393
0002d0 34 46 d8 bd c6 dd 08 3e d8 21 d2 3c 68 ce 92 3d
       -0.10560265 0.1336585 0.025650904 0.07168275
0002e0 14 05 35 3e 65 39 1a bc c1 3b 59 3e eb e8 cc 3e
       0.17677718 -0.009413098 0.212142 0.40021452
0002f0 53 53 8c 3e 46 90 4e bc a9 8b 0b 3e 97 b3 2b be
       0.2740732 -0.01260764 0.13627495 -0.16767727
000300 3c 47 08 3e d0 23 08 3e 33 7b 2c 3e 29 31 73 bd
       0.13308424 0.13294911 0.16843872 -0.059373055
000310 c0 9c 83 3d 8b bf e3 bd 73 81 26 3c 1f 47 19 be
       0.06426382 -0.11120518 0.010162699 -0.14968537
000320 92 bb 2b 3d 88 00 13 3e b6 c1 b2 bd 47 b8 94 bc
       0.041926928 0.14355671 -0.08728354 -0.018154277
000330 8c e2 a6 3c fe f8 43 be bc ad 23 be 41 87 01 3e
       0.020371698 -0.19137952 -0.15984243 0.12649252
000340 c1 e8 b8 bd 55 bb 82 3c 51 1e 2c 3e a5 10 3d be
       -0.09028769 0.015958467 0.1680844 -0.1846338
000350 1c f8 35 3e eb 45 ca bd 32 5e a3 3d 01 84 a8 3d
       0.17770427 -0.09876617 0.07976951 0.08228303
000360 fd dc d7 3b e4 de 57 3e 53 5f 3a be 47 39 88 3e
       0.006587623 0.2108112 -0.18200426 0.266062
000370 2e 8c 16 3e 0d da b0 3d 4d 0b 10 bd 2b f0 b4 3b
       0.14701912 0.0863534 -0.035167027 0.0055217943
000380 8b c4 0b be c3 9c b9 bd 32 f0 29 bd e1 93 cf 3d
       -0.13649194 -0.09063103 -0.041488834 0.101356275
000390 bf dd 74 bb dd 28 95 bd 47 d1 53 3e b4 21 10 3d
       -0.0037363616 -0.07283185 0.20685302 0.03518839
0003a0 f6 8b 9f bb a3 db 80 3d 52 8f b5 3e b6 33 44 3e
       -0.0048689796 0.062918924 0.35460907 0.19160351
0003b0 ca a9 25 be b0 ae 92 3e f6 08 0e be d6 3d 93 bd
       -0.1617805 0.286489 -0.13870606 -0.07189529
0003c0 91 3a 86 be 6f ce 56 be 9a b6 d3 3e 45 2f 65 3e
       -0.26216558 -0.20977186 0.4135025 0.22381313
0003d0 b5 7b f6 bd 06 51 9c 3e 75 b1 90 bb a8 fe 16 3d
       -0.12035314 0.30530566 -0.004415686 0.036863953
0003e0 17 91 ae bd 47 ba 4d be cc 00 2a 3c 94 d4 83 be
       -0.085237674 -0.2009059 0.010376167 -0.25748122
0003f0 28 d5 83 be 43 6d 84 be b4 4d 0a bd c3 fc ed 3d
       -0.25748563 -0.2586461 -0.03376551 0.11620476

fc2.bias f4 [64]
000000 19 49 c8 3d 84 ae 01 3e 8f f3 d1 3d 44 d6 cb bc
       0.09779567 0.12664229 0.10251533 -0.024882443
000010 38 3f 9f 3d b5 fd d2 bc 2b 95 e7 bd d1 58 bb 3c
       0.0777573 -0.025755743 -0.113077484 0.0228695
000020 46 d9 79 bd 5e 00 7d 3d 91 30 4c 3c c5 03 9f 3d
       -0.060998224 0.06176793 0.012462751 0.07764391
000030 67 fc 35 3e f7 db a5 bd 83 4b 07 bd ef 58 32 3e
       0.17772065 -0.080985956 -0.033030998 0.17416738
000040 27 76 0c 3d a5 48 23 3c 68 c2 04 3d 2e d1 b1 3d
       0.034292366 0.00996605 0.032411963 0.08682476
000050 e7 8b dd 3c 18 15 22 3e 90 e7 ae 3d ca 2c c9 3d
       0.02704425 0.15828359 0.08540261 0.09822996
000060 b5 18 53 bc d9 6e 01 3e 99 fa 20 3d 4e aa 39 3e
       -0.012884309 0.12639941 0.03930149 0.18131372
000070 ae 10 7b 3d 85 65 d7 3d 49 c9 02 3d 54 17 30 3e
       0.061295204 0.1051741 0.03193024 0.17196399
000080 c3 40 a0 3d 94 7a 42 3e 92 ce e7 bb 0e 1c fe 3a
       0.07824852 0.18992072 -0.0070741856 0.0019387023
000090 e4 a5 cf 3d 8a 1e 44 3d 42 9c 0c bd 3c fc 3c bc
       0.10139063 0.047880687 -0.034328707 -0.011534747
0000a0 ef 50 58 3d 58 c5 06 3e 92 e2 47 3c aa fe 56 3d
       0.05281156 0.13161218 0.012200015 0.05248896
0000b0 7a ba bb 3d bb 8f 28 3d ae 2a 01 bd 02 b3 10 bd
       0.09166427 0.041152697 -0.031534843 -0.035326965
0000c0 e9 c0 d5 bb 2e ea f3 bc 9a 96 87 3d b3 5b 8f 3d
       -0.006523241 -0.029774752 0.06620522 0.06999912
0000d0 87 ca cb 3d 6b 4e ad 3c bb 87 5d bd 18 10 9b 3c
       0.099507384 0.021155557 -0.05408452 0.018928573
0000e0 f6 14 fa bc be 60 c9 bc 27 60 c6 3d 0d dd 06 3b
       -0.030527573 -0.024582263 0.09686308 0.0020578534
0000f0 64 e0 90 bd c8 58 99 bc d5 51 d2 3b 4e 14 05 bd
       -0.07074049 -0.018719092 0.0064184465 -0.032490067

fc3.weight f4 [33, 64]
000000 bc b6 8b 3d 13 59 7a 3d c6 cd db 3b 70 e5 ee 3d
       0.06821963 0.061120104 0.0067078797 0.116648555
000010 49 f8 98 be 19 24 ae bb fd 92 8b 3c 90 5e be be
       -0.29876927 -0.005314362 0.017037863 -0.3718152
000020 3d d7 42 3c 53 02 a2 be 64 d5 64 3d 3f 20 75 3d
       0.011892137 -0.31642398 0.055867568 0.059845205
000030 47 fa 91 3d 72 84 d7 bd 2d 1a 2f 3d 5f 50 9f be
       0.07127815 -0.10523309 0.042749573 -0.31116006
000040 11 ee b4 be 9b 1e 92 be 5e 34 a5 3c 04 57 b1 be
       -0.3533788 -0.28538975 0.020166572 -0.346367
000050 04 ab 05 bd 0c 8d 89 be 7f 95 25 3c 2b 3c 6a be
       -0.032633796 -0.26865423 0.010106443 -0.22874515
000060 5e f3 d6 3c aa b7 a4 bd 6e 52 4b 3d d8 84 5a be
       0.026239093 -0.08042844 0.049639158 -0.21339738
000070 7c c0 fa 3c b2 eb f1 be 2f 47 33 bc 67 4e d0 be
       0.030609362 -0.47250134 -0.010942264 -0.40684816
000080 ce 36 09 3e 62 1e dc be c1 84 1a be 02 55 11 3e
       0.13399813 -0.4299193 -0.15089704 0.14192584
000090 34 77 d2 bc cf 4b 4a 3e 3e 14 f5 3d 1b 02 60 bd
       -0.025691606 0.19755481 0.119667515 -0.054689508
0000a0 be ec cf be e5 64 ac be 13 36 27 be b6 02 4a be
       -0.40610307 -0.33670726 -0.16329221 -0.19727597
0000b0 0c dd cb be 84 6d 00 3e 1d 84 9c 3d 94 2a c8 3c
       -0.39817083 0.12541777 0.07642386 0.024434365
0000c0 d3 0f 58 be 37 50 91 3d 9c cf 92 bd 70 e0 52 be
       -0.21099786 0.07095378 -0.071685046 -0.20593429
0000d0 91 b9 81 bd fd 82 b9 3d de bf 2f 3e 82 be f1 be
       -0.06334222 0.09058187 0.17163035 -0.47215658
0000e0 f8 b8 34 be 33 f3 84 be 0f b9 52 3e 36 ed bd 3d
       -0.17648685 -0.25966796 0.20578407 0.0927376
0000f0 2a 8e 3e be 9e d1 cd 3d b4 7f b1 3c ab a6 16 3d
       -0.18608919 0.10049747 0.021667339 0.03678004
000100 98 1b 2c 3c ed f5 51 be 88 ae 39 be 0b 90 4d bd
       0.010504626 -0.2050397 -0.18132985 -0.0501862
000110 3c 33 21 3e 43 03 03 3d c7 bc 80 bd 2e 55 05 3c
       0.157422 0.031985532 -0.062860064 0.008137984
000120 65 4d 05 bf ea 36 5c be 31 a3 9a be 2a 5a 42 be
       -0.5207122 -0.21505323 -0.3020263 -0.18979707
000130 bd 28 53 be b5 65 29 3e 99 bb 1a bf 05 02 81 be
       -0.20621009 0.16542704 -0.604425 -0.25196853
000140 ca cc 7b bd 57 fd c7 be 58 4c 17 3e 88 f8 2c 3e
       -0.0614746 -0.3906047 0.14775217 0.16891682
000150 0f 33 a9 3d b5 af bd 3d ac be 21 be 4a d5 79 bc
       0.08261692 0.09262029 -0.15795392 -0.015248606
000160 9e ed 59 bd 1c 0f 6e be b0 66 22 39 cb e0 69 be
       -0.053205125 -0.23247951 0.00015487778 -0.22839658
000170 42 f5 1e 3e fd 85 fb 3d c9 3c 47 be ff 8a 69 3d
       0.15523246 0.122814156 -0.19456781 0.057017323
000180 b4 95 94 be f2 0b a5 3c bb 8d 73 3d 41 3b c3 bd
       -0.29020464 0.020147298 0.059461337 -0.09532786
000190 a9 f7 7a 3e 10 11 ea be 03 58 9b bd 5c 50 1b bf
       0.24508537 -0.45716143 -0.07585146 -0.60669494
0001a0 f4 f4 b5 bd 8c cf 30 3e e7 a8 8a be 0d 83 a9 3d
       -0.08884612 0.17266673 -0.27081987 0.08276949
0001b0 a8 0f 1f 3e 39 45 02 bf ac 2b 11 3d 10 91 f8 bd
       0.15533316 -0.50886875 0.03544204 -0.121370435
0001c0 dc 85 83 be 27 30 9b be 90 3c ce be 90 d8 fb 3d
       -0.25688064 -0.30310175 -0.4028058 0.122971654
0001d0 22 03 14 be 46 e7 48 be 1c 81 0a be 88 27 f4 3d
       -0.1445432 -0.19619474 -0.13525814 0.119216025
0001e0 fe 5d f9 3c e2 da 52 3e 69 9a e0 be 67 59 15 bf
       0.030440327 0.2059131 -0.43867806 -0.5833954
0001f0 b9 46 c9 be 4f f5 e8 be 6b 93 c6 be f8 6b db be
       -0.3931177 -0.45499656 -0.38784346 -0.4285581
000200 c6 5e f4 be 69 b3 23 bf 67 74 0c 3e 9c b1 bc be
       -0.47728556 -0.63945633 0.13716279 -0.36854255
000210 23 6a b0 be 3d 95 95 3d 6f 85 95 bd 4e a0 bc 3d
       -0.34455976 0.073038556 -0.07300841 0.09210263
000220 6a fa 87 be 84 60 8b be cb d4 00 be 53 72 03 3e
       -0.26558238 -0.27222073 -0.12581174 0.1283658
000230 88 ab 81 3b 57 95 a3 be ce f2 2c 3d 95 3f 0d 3b
       0.0039572157 -0.31949875 0.042223744 0.002155279
000240 4c fe 98 3d 5c cb 4e be 79 3e 3f 3e 81 16 1b 3e
       0.07470378 -0.20194763 0.18676175 0.15145303
000250 f1 dc 2d bf 32 6d 12 3e 7e 1b bf be 84 3c 1a 3d
       -0.67915255 0.14299467 -0.37325662 0.03765537
000260 bc d0 11 be 34 73 1c 3e 7d 3d ee 3d 6e b0 db 3c
       -0.14239782 0.15278322 0.11632822 0.026817527
000270 8d 50 32 be bb 59 87 be 2d 35 4c 3e 04 2b 21 3e
       -0.1741354 -0.26435646 0.1994216 0.15739065
000280 e9 06 b2 bd 35 d6 2a be 6b a8 fa 3d 50 b2 c4 be
       -0.08692724 -0.16683276 0.122391544 -0.38417292
000290 26 ec 73 bd a0 f6 02 3b 2a e7 13 be 77 c4 e5 ba
       -0.05955138 0.0019983426 -0.14443651 -0.0017529865
0002a0 21 c0 ce bd ed 42 1b be ad 7d f0 bd 0f 99 9b be
       -0.100952394 -0.15162249 -0.11742721 -0.30390212
0002b0 64 08 eb 3d be 71 8a be a7 62 b2 3d 70 6d b3 3d
       0.1147621 -0.27039903 0.08710223 0.08761108
0002c0 ba b2 16 3e 0d 1d e8 be 41 c4 de bd a6 ef 6a bd
       0.14716616 -0.45334664 -0.10877276 -0.057357453
0002d0 52 74 f9 3d ec b7 0a bf 8d f2 88 3c a3 dc 4e 3d
       0.121803895 -0.5418689 0.01671722 0.050503384
0002e0 26 1c 0a bd fe f4 84 bd 98 19 5d 3d ef 5b 99 bd
       -0.03371825 -0.06492041 0.053979486 -0.07488238
0002f0 71 12 95 bb c4 95 a0 bd 0d 4a ed be 4b 19 ae bd
       -0.0045493175 -0.078410655 -0.4634556 -0.08500918
000300 fa 65 16 bf 05 80 76 be 73 89 05 bd 59 48 54 3e
       -0.58749354 -0.24072273 -0.032601785 0.20730723
000310 70 25 ba bd 18 85 4b bd 4e 57 14 bd f2 e9 1d be
       -0.09089172 -0.049687475 -0.036216073 -0.15421274
000320 c8 56 ad bd 72 bc cb 3d 90 f9 fb 3d b8 42 1b 3e
       -0.08463818 0.099480525 0.1230346 0.1516217
000330 3b 9c 1d bd 28 b9 f3 3d 81 a3 9e 3c 9a bf be 3c
       -0.03847907 0.1190055 0.019365074 0.023284722
000340 30 62 93 be b6 61 6d bd ef 56 83 be 0b f3 8b bd
       -0.2878585 -0.057954513 -0.25652263 -0.06833466
000350 17 33 a8 bd 6b df 9d be 27 40 bf 3c 16 d2 76 be
       -0.082128696 -0.30834517 0.02334602 -0.24103579
000360 9a 31 73 be cc b8 3b bd c6 5f a2 bd 47 7e a7 3d
       -0.2374939 -0.045830533 -0.079284236 0.08178382
000370 91 fb fc bb 40 11 33 be 2c 0a 0e bd 99 83 0f bf
       -0.0077204187 -0.17487049 -0.03467767 -0.5606018
000380 00 8a 1e 3b 47 b1 87 be d4 5e 80 be 0d 91 23 3d
       0.002419114 -0.2650244 -0.25072348 0.039933253
000390 be b5 c7 3d 90 04 a3 bd 18 82 00 be 2a 58 87 bc
       0.097514614 -0.079598546 -0.12549627 -0.016521532
0003a0 ed 72 7f be 57 f2 14 bf 01 51 35 3d b8 77 25 be
       -0.24946184 -0.5818228 0.044266704 -0.1615895
0003b0 26 e1 ce 3d f1 a3 f4 3b 4f 34 e0 3d 9e ce 2a 3e
       0.101015374 0.0074658324 0.10947477 0.1668038
0003c0 37 27 02 3d 9e 44 ce 3c 9e 82 4d 3d 8f 90 7d 3c
       0.03177568 0.025179204 0.050173394 0.01547636
0003d0 e5 d8 96 be b7 bd cf 3d e6 5d 81 be 8d 57 09 be
       -0.29462352 0.10143607 -0.2526695 -0.13412304
0003e0 d2 5b a7 bd ed 6f fa bc 62 f9 48 bb 8f 93 41 be
       -0.0817181 -0.030570948 -0.0030666222 -0.18903945
0003f0 9f 0a da 3d dd 82 03 be b9 e9 bc 3c ad 3a 4f 3e
       0.10646557 -0.12842889 0.023060666 0.20237227

fc3.bias f4 [33]
000000 ab b6 2a be be 04 81 3d a2 f1 c9 3c 52 f3 74 be
       -0.16671245 0.062997326 0.024651352 -0.23920944
000010 ac d7 6d 3d 0d 4b ee bd 8a ca 8f 3d e2 f6 88 be
       0.05806701 -0.116354086 0.07021053 -0.26750857
000020 3f d6 13 3e a5 ed c3 3d 5d 8c 57 3c 50 26 f0 bd
       0.14437197 0.095668115 0.013156024 -0.117260575
000030 f0 0c dd bc 97 73 4a bc 50 e4 04 3e 56 0b 24 3d
       -0.026983708 -0.01235666 0.1297772 0.040049873
000040 c2 d8 a8 bd 9e 2a d0 3c 6e dc ed 3d c8 c7 f5 bd
       -0.08244468 0.025410946 0.11614309 -0.12000996
000050 41 99 ce bd c6 da a0 bc 16 bf 08 bc 3d 3d 96 3d
       -0.100878246 -0.01963557 -0.00834634 0.07335899
000060 29 0b 81 3d 04 4f 04 be c8 89 c4 bd 94 ae a1 3d
       0.06300957 -0.12920767 -0.09596592 0.07894626
000070 b3 4e 23 bd 84 31 00 3e 48 43 10 3e 6d 3c f2 bd
       -0.039869975 0.12518889 0.14088166 -0.118279316
000080 d1 87 45 3d
       0.048225228
